app/src/main/assets/model.tflite (tflite, 457724 bytes, 8 tensors)

conv2d_1/Conv2D_bias f4 [32]
-0.013713708 -0.023147937 -0.008381496 -0.0026474008 -0.0056610247 0.007382497 0.045826603 -0.008037306
-0.0028162003 -0.045677677 0.031363975 -0.047864772 -0.025516532 -0.0017177761 0.02297087 -0.026716907
0.0026118841 -0.007620414 -0.017719049 -0.020840928 -0.009416633 -0.01239225 -0.024441374 0.04243355
0.003682411 0.012105097 -0.010237453 -0.029069863 -0.0044920244 -0.008047273 0.019069057 0.006745223
00000000: 76af 60bc bea0 bdbc 8b52 09bc 0480 2dbb
00000010: 1e80 b9bb e0e8 f13b adb4 3b3d e8ae 03bc
00000020: 0090 38bb 8418 3bbd 8377 003d da0d 44bd
00000030: 0c08 d1bc 0027 e1ba 682d bc3c 6add dabc
00000040: 252c 2b3b aab4 f9bb 8a27 91bc 98ba aabc
00000050: 3948 1abc dd08 4bbc 4739 c8bc cdce 2d3d
00000060: 9b54 713b 7554 463c fdba 27bc ec23 eebc
00000070: d531 93bb b6d8 03bc b636 9c3c 0807 dd3b

conv2d_1/kernel f4 [1, 5, 5, 32]
-0.108955115 -0.14864567 0.063658826 -0.011196152 0.009538429 0.06165218 -0.0059320945 0.052018464
-0.24333955 -0.09245814 -0.041496243 0.08632063 -0.17567097 0.05494043 -0.27087033 -0.049461413
0.072035864 -0.19741128 0.05973293 0.05404272 -0.09382249 0.0044402736 0.030609848 0.1045116
0.094624795 -0.012516679 -0.068530165 -0.17420878 -0.04701323 0.032536313 0.10259011 0.0007633681
0.009776262 -0.095050864 -0.011146967 -0.03126718 -0.22805461 -0.0759001 0.030757407 0.08738501
-1.3853387e-05 -0.05237168 0.017068535 0.015937764 0.02621086 0.045283757 -0.25278717 0.09902221
0.040135995 -0.23695415 0.09841153 -0.03507337 0.03048174 0.14266373 -0.07479458 0.07568714
0.059384458 0.0027042697 -0.08825114 -0.11826235 0.07880942 -0.04310997 0.15816493 0.06274263
0.021544289 -0.016605962 0.08416127 -0.09110647 -0.34115848 -0.07446163 -0.10490815 0.20826744
0.00609902 0.13346744 0.0032227202 0.08682379 0.09392567 0.050232712 -0.22583921 0.08476136
0.011083333 -0.3283537 0.09627321 -0.14802916 0.08288078 0.1814779 -0.020360325 0.057733066
0.02871381 0.025160883 -0.23048104 -0.14648105 0.08455188 -0.04340586 0.053737752 0.21862161
0.02489802 -0.123452105 0.051085614 -0.23003228 -0.13993886 0.0039776526 -0.03060279 -0.024451552
0.16900446 0.05392355 -0.03104326 0.039618164 0.09225323 -0.093480006 -0.27785397 0.06639757
0.028135633 -0.233036 0.006127295 -0.1683223 -0.010244619 0.016796317 0.040903375 -0.12263278
0.060758393 -0.032749645 -0.09405547 -0.047694027 -0.09672773 0.023721352 0.109238766 0.21500656
0.04978149 0.05901948 0.12022538 -0.006907164 0.08102481 -0.0071030627 0.015690891 -0.028086927
0.10292435 0.123091616 -0.09114472 0.12445049 -0.03256771 -0.14018631 -0.2170089 -0.100373514
0.05584432 -0.13492428 0.006035229 -0.026816957 -0.07540641 0.07870963 -0.05921994 -0.18966791
0.16789016 -0.0058066016 0.09273503 0.021548582 -0.04308327 0.10582009 0.12796825 0.1858767
0.093160726 0.12648916 -0.021346096 0.099309765 0.11362273 0.12720191 0.08123678 0.117564574
-0.23342231 -0.0339868 -0.09382329 0.010623034 -0.062454615 0.07950293 -0.1122919 -0.047318608
0.1272456 -0.279642 0.0071530016 -0.023101777 0.07286034 0.022863103 0.11358766 0.028607152
0.089961246 0.13261732 0.14194025 -0.12469632 0.1287147 -0.055334695 0.17246842 -0.032145135
0.09239493 -0.011790339 0.016136143 0.068820454 0.03615692 0.10679073 -0.0044798413 0.17062084
-0.05558613 -0.0011414057 -0.192699 -0.0004013414 -0.038730577 0.061887197 -0.14867716 0.07477192
0.09171684 -0.16435173 0.080338664 -0.02738885 0.10880648 0.021357 0.0049644187 -0.115563855
0.15678656 0.13743073 0.031014955 -0.08079606 0.2149761 -0.1350551 0.080926076 -0.16838282
0.064821005 0.0026354461 0.11977497 0.0790033 -0.079907775 0.08906968 0.050967574 0.11172061
0.038654096 0.04762946 -0.23472868 -0.048437428 0.07190661 0.14144023 -0.25772965 0.066096835
0.10748101 -0.086530164 0.051202815 0.012304707 -0.005406332 0.119606435 -0.07741444 -0.31147414
0.14344002 0.08353558 -0.22119682 0.03538214 0.11673977 -0.16576692 0.17940684 -0.13614772
00000000: dc23 dfbd 9236 18be 8f5f 823d 1170 37bc
00000010: 1247 1c3c ff86 7c3d 0462 c2bb 5011 553d
00000020: 012e 79be b15a bdbd f7f7 29bd dfc8 b03d
00000030: 17e3 33be 3709 613d 84af 8abe 0d98 4abd
00000040: 8a87 933d 2f26 4abe 84aa 743d e65b 5d3d
00000050: 0126 c0bd b77f 913b 81c1 fa3c 2e0a d63d
00000060: a5ca c13d c212 4dbc 8b59 8cbd c963 32be
00000070: f290 40bd cc44 053d c31a d23d c41c 483a
00000080: 9d2c 203c 07aa c2bd c5a1 36bc 0412 00bd
00000090: 2687 69be 8371 9bbd f5f6 fb3c eaf6 b23d
000000a0: d86b 68b7 b083 56bd 50d3 8b3c ea8f 823c
000000b0: 28b8 d63c 767b 393d 526d 81be 28cc ca3d
000000c0: a465 243d 1ca4 72be fc8b c93d 18a9 0fbd
000000d0: d8b4 f93c 7116 123e e72d 99bd dc01 9b3d
000000e0: 1e3d 733d 1e3a 313b 04bd b4bd 8833 f2bd
000000f0: d566 a13d 1494 30bd fdf5 213e 357f 803d
00000100: a67d b03c 3a09 88bc be5c ac3d 0796 babd
00000110: 53ac aebe 577f 98bd 16da d6bd 0f44 553e
00000120: 4ada c73b b0ab 083e 4634 533b acd0 b13d
00000130: 1a5c c03d d1c0 4d3d 6542 67be 5d97 ad3d
00000140: de96 353c fa1d a8be e42a c53d f594 17be
00000150: 66bd a93d 58d5 393e b2ca a6bc 8279 6c3d
00000160: 3939 eb3c 321e ce3c 3903 6cbe 21ff 15be
00000170: 8929 ad3d 58ca 31bd 1e1c 5c3d 58de 5f3e
00000180: eff6 cb3c 75d4 fcbd 263f 513d 958d 6bbe
00000190: 224c 0fbe f856 823b b4b2 fabc 9f4e c8bc
000001a0: 810f 2d3e f1de 5c3d 6f4e febc a846 223d
000001b0: 43ef bc3d 7272 bfbd e042 8ebe 73fb 873d
000001c0: b37c e63c fda0 6ebe 7ac7 c83b ae5c 2cbe
000001d0: 0cd9 27bc 6e98 893c 4c8a 273d e526 fbbd
000001e0: cbdd 783d 7e24 06bd 27a0 c0bd d05a 43bd
000001f0: 3019 c6bd 4853 c23c 93b8 df3d ae2a 5c3e
00000200: ade7 4b3d 69be 713d b938 f63d 7e55 e2bb
00000210: 56f0 a53d cfc0 e8bb 2f8a 803c 8e16 e6bc
00000220: 00ca d23d 7517 fc3d 15aa babd e6df fe3d
00000230: b865 05bd 008d 0fbe 9537 5ebe a190 cdbd
00000240: 04bd 643d 9729 0abe 2cc3 c53b 3caf dbbc
00000250: ad6e 9abd 8432 a13d 9c90 72bd 4e38 42be
00000260: 66eb 2b3e 4e45 bebb ddeb bd3d a786 b03c
00000270: 1578 30bd 34b8 d83d 1c0a 033e 7656 3e3e
00000280: 0dcb be3d 6086 013e 02de aebc eb62 cb3d
00000290: 09b3 e83d 3841 023e 785f a63d b2c5 f03d
000002a0: 4206 6fbe be35 0bbd 6d26 c0bd 3c0c 2e3c
000002b0: 69d0 7fbd 6fd2 a23d 4cf9 e5bd 28d1 41bd
000002c0: ac4c 023e 3c2d 8fbe ba63 ea3b f03f bdbc
000002d0: cd37 953d 674b bb3c a6a0 e83d 8c59 ea3c
000002e0: 9a3d b83d d6cc 073e c958 113e c960 ffbd
000002f0: c9cd 033e a2a6 62bd 909b 303e 9eaa 03bd
00000300: 8e39 bd3d 442c 41bc f22f 843c bdf1 8c3d
00000310: 4719 143d 19b5 da3d a2cb 92bb 3bb7 2e3e
00000320: 48ae 63bd 389b 95ba e352 45be 226b d2b9
00000330: f4a3 1ebd 6e7d 7d3d d33e 18be 0522 993d
00000340: 0ad6 bb3d d24b 28be 9988 a43d 955e e0bc
00000350: efd5 de3d e0f4 ae3c 90ac a23b beac ecbd
00000360: a88c 203e a4ba 0c3e 1313 fe3c 6878 a5bd
00000370: b222 5c3e e24b 0abe 92bc a53d 8c6c 2cbe
00000380: e0c0 843d 73b7 2c3b 944c f53d 7bcc a13d
00000390: b0a6 a3bd 2a6a b63d 60c3 503d c6cd e43d
000003a0: c253 1e3d 1c17 433d b75c 70be 5366 46bd
000003b0: c643 933d b5d5 103e 24f5 83be c75d 873d
000003c0: 011f dc3d ba36 b1bd 0bba 513d af99 493c
000003d0: 9a27 b1bb 38f4 f43d 768b 9ebd 8a79 9fbe
000003e0: f1e1 123e b414 ab3d 6b81 62be ddec 103d
000003f0: 4315 ef3d cebe 29be 6db6 373e 4f6a 0bbe

conv2d_2/Conv2D_bias f4 [32]
0.0077003073 -0.02476398 0.002842308 0.02578814 -0.003757098 0.006160189 -0.031961255 -0.031217469
-0.010888808 0.0019091155 -0.010261197 -0.015080391 -0.028544083 -0.0446038 0.042209912 -0.0042531095
0.0035068146 0.0029150883 -0.02029583 0.011446705 -0.047064256 0.033158097 0.0017411086 -0.043797836
-0.026278095 0.0093233455 -0.007513042 0.035660483 -0.0128691485 0.0033225024 -0.007435524 0.019269658
00000000: dc52 fc3b d5dd cabc 0446 3a3b a641 d33c
00000010: a539 76bb 69db c93b cee9 02bd c7bb ffbc
00000020: f966 32bc 493b fa3a 941e 28bc bf13 77bc
00000030: 48d5 e9bc 79b2 36bd 4de4 2c3d ab5d 8bbb
00000040: 96d2 653b 110b 3f3b 7143 a6bc f68a 3b3c
00000050: 73c6 40bd c9d0 073d e935 e43a 5c65 33bd
00000060: 2945 d7bc f2c0 183c f72f f6bb ba10 123d
00000070: 1fd9 52bc 57be 593b b2a5 f3bb 67db 9d3c

conv2d_2/kernel f4 [32, 3, 3, 32]
0.10471865 0.081750765 0.054265946 0.1995594 0.035453513 -0.042483233 0.1988833 -0.004069513
-0.12968132 0.06276928 -0.083474495 0.026678912 -0.106186815 0.112460405 0.07056793 -0.0037973095
0.028365044 -0.044291127 0.0034354974 0.046305545 -0.07286234 0.051537458 0.058488168 -0.1707652
-0.24438156 0.07136696 0.11708298 -0.104820766 0.120286606 -0.02405271 -0.21983917 -0.040881
0.023381853 0.06298818 -0.08642927 -0.039676342 0.2427411 -0.20247328 -0.030644134 -0.08692777
-0.21036214 0.013013597 -0.040064715 -0.099516675 -0.20364484 -0.095283985 -0.029040731 -0.063407116
-0.18396483 -0.024116596 0.0052612694 -0.034724835 0.010119292 -0.095612444 0.019672552 -0.15617289
-0.17119084 -0.13257805 0.12018496 -0.08490635 -0.014483703 -0.14515883 -0.33238634 0.09479481
-0.022980642 -0.112046026 -0.02569712 0.083759874 0.081926994 -0.18115889 -0.04954284 -0.025884267
0.041236233 0.0017898356 0.07121001 -0.04353974 0.053226277 -0.04520565 0.20050198 -0.066954225
-0.15451553 0.3240851 -0.012095511 -0.1019326 0.0219602 0.09497653 0.0063159117 0.22310552
-0.1657691 -0.10442367 0.054183938 -0.023227412 0.05248378 0.19017816 -0.27319327 0.06254109
0.12292753 0.07926399 0.0038803872 -0.037592072 -0.08491557 -0.025461722 0.11263874 0.0015784141
0.07543738 0.007838922 -0.23341297 0.050150666 0.030232808 -0.043957613 -0.24313772 -0.013530885
-0.015958631 -0.030095756 -0.020022426 0.04397531 0.08421087 -0.042886615 0.055382323 -0.06619938
-0.09513572 -0.049141683 0.16007333 -0.096246645 0.012168069 -0.00017190765 -0.17584276 -0.0889234
0.06370295 0.08462013 -0.047137387 -0.0018932993 0.11249413 -0.14927016 0.12142681 0.04441389
-0.18857005 -0.15875217 -0.04899374 -0.11740622 -0.034489837 0.059975285 -0.12972233 0.13402559
0.03492223 -0.28002015 0.13929924 -0.017468471 0.05098447 0.021135071 0.039038345 -0.20264389
-0.06139993 -0.105240904 0.2137373 0.017555721 -0.19399686 -0.08985254 -0.15345705 -0.09488396
-0.011778757 -0.017999798 -0.018165298 0.019063704 -0.08220264 0.013935992 0.08478947 -0.11291357
0.12119438 0.18678261 0.026347918 0.13010208 0.0001705612 -0.045675058 0.010324826 0.0017151674
0.035542905 0.09013126 -0.006955788 0.07466856 -0.11706148 0.035135783 0.15816575 0.050236322
0.050958358 -0.08949642 0.120425925 -0.021451559 0.14146163 0.10397674 -0.10647578 0.052799482
0.18711615 0.0090093855 -0.018270876 0.114605494 -0.13275051 -0.10190055 -0.012751398 0.095966235
0.25510302 0.084581874 -0.10183715 0.06039114 0.14149101 0.024205402 0.07587905 -0.026984401
0.034502756 -0.1171081 0.08813169 0.12801825 0.015193722 -0.052720368 0.11835618 0.15598905
-0.018360266 0.04456306 0.17364909 0.11569589 -0.023677632 0.08335949 -0.11295897 -0.25186563
0.09205737 0.012919062 0.1142121 -0.00062856724 -0.005298897 -0.047948305 0.041378204 -0.07709113
-0.14101842 -0.121582806 -0.027427465 0.059267838 -0.12609631 -0.057973888 -0.15478496 -0.0057145967
-0.0716122 -0.13885245 0.121009044 -0.07911763 0.014145297 -0.10316303 0.09268135 -0.111193806
-0.01209628 -0.057615116 0.04297636 -0.06925341 -0.09825973 -0.12742478 -0.0029102878 -0.15030397
00000000: bb76 d63d f26c a73d f845 5e3d 4d59 4c3e
00000010: b437 113d e602 2ebd 10a8 4b3e 8d59 85bb
00000020: 2ecb 04be 2e8d 803d adf4 aabd bc8d da3c
00000030: 7978 d9bd a451 e63d eb85 903d 48dc 78bb
00000040: cf5d e83c 9d6a 35bd 1526 613b e2aa 3d3d
00000050: da38 95bd f118 533d 4a91 6f3d 13dd 2ebe
00000060: 293f 7abe d728 923d 34c9 ef3d 45ac d6bd
00000070: d358 f63d 300a c5bc 851d 61be d672 27bd
00000080: 4d8b bf3c f2ff 803d d401 b1bd a983 22bd
00000090: 1f91 783e 2855 4fbe 6809 fbbc 3007 b2bd
000000a0: 2c69 57be fb36 553c e61a 24bd 66cf cbbd
000000b0: 4688 50be 4024 c3bd d4e6 edbc 97db 81bd
000000c0: 4761 3cbe 2b90 c5bc ba66 ac3b a13b 0ebd
000000d0: 63cb 253c 75d0 c3bd 5528 a13c c9eb 1fbe
000000e0: a74c 2fbe 8ac2 07be 8823 f63d 61e3 adbd
000000f0: 0e4d 6dbc 84a4 14be 8b2e aabe c823 c23d
00000100: e641 bcbc 6378 e5bd c482 d2bc 4c8a ab3d
00000110: 57c9 a73d b781 39be 6fed 4abd 3e0b d4bc
00000120: 53e7 283d eb98 ea3a 8ed6 913d ba56 32bd
00000130: cc03 5a3d 8f29 39bd 6450 4d3e 4c1f 89bd
00000140: 5239 1ebe 7bee a53e 402c 46bc 0ac2 d0bd
00000150: e1e5 b33c 0e83 c23d b5f5 ce3b c675 643e
00000160: 60bf 29be 14dc d5bd faef 5d3d 6a47 bebc
00000170: 3bf9 563d 10be 423e fddf 8bbe 8b15 803d
00000180: 6ec1 fb3d 2955 a23d 184e 7e3b 25fa 19bd
00000190: 37e8 adbd 1a95 d0bc 24af e63d cae2 ce3a
000001a0: ea7e 9a3d d26e 003c cf03 6fbe c96a 4d3d
000001b0: cbaa f73c e60c 34bd 18f9 78be a5b0 5dbc
000001c0: adbb 82bc 608b f6bc 1206 a4bc 741f 343d
000001d0: c076 ac3d e0a9 2fbd 93d8 623d 8a93 87bd
000001e0: 84d6 c2bd ca48 49bd 43ea 233e f61c c5bd
000001f0: 955c 473c 1c42 34b9 2010 34be 791d b6bd
00000200: b176 823d 524d ad3d 2213 41bd 9528 f8ba
00000210: 5363 e63d 47da 18be 9fae f83d 57eb 353d
00000220: 8218 41be ee8f 22be a9ad 48bd ac72 f0bd
00000230: 3745 0dbd a5a8 753d eed5 04be 013e 093e
00000240: 9d0a 0f3d cd5e 8fbe 76a4 0e3e 0a1a 8fbc
00000250: 17d5 503d 7523 ad3c ace6 1f3d e181 4fbe
00000260: 7e7e 7bbd 8b88 d7bd f3dd 5a3e 04d1 8f3c
00000270: 1da7 46be 9c04 b8bd d823 1dbe 8652 c2bd
00000280: b0fb 40bc 5074 93bc 64cf 94bc 7c2b 9c3c
00000290: dc59 a8bd c953 643c 1aa6 ad3d 3b3f e7bd
000002a0: c234 f83d f143 3f3e 97d7 d73c 7b39 053e
000002b0: acd8 3239 c515 3bbd 7629 293c 78cf e03a
000002c0: 7095 113d bd96 b83d 61ed e3bb d4eb 983d
000002d0: eebd efbd 8aea 0f3d 34f6 213e 9ac4 4d3d
000002e0: b6b9 503d e649 b7bd dea1 f63d 2ebb afbc
000002f0: 51db 103e c2f1 d43d f90f dabd 4544 583d
00000300: 609b 3f3e 1a9c 133c ceac 95bc 49b6 ea3d
00000310: c0ef 07be 3cb1 d0bd 3deb 50bc f289 c43d
00000320: dd9c 823e 4339 ad3d ff8f d0bd b35c 773d
00000330: 05e3 103e 684a c63c 7a66 9b3d 640e ddbc
00000340: c352 0d3d 5fd6 efbd 637e b43d 3717 033e
00000350: 17ef 783c 50f1 57bd ba64 f23d 98bb 1f3e
00000360: 4568 96bc c187 363d 11d1 313e f7f1 ec3d
00000370: 98f7 c1bc 61b8 aa3d 0857 e7bd 88f4 80be
00000380: 9388 bc3d 79aa 533c 09e8 e93d 6fc6 24ba
00000390: 5fa2 adbb 7165 44bd 317c 293d f4e1 9dbd
000003a0: 2267 10be 6800 f9bd 90af e0bc d5c2 723d
000003b0: 641f 01be 0776 6dbd f37f 1ebe 8341 bbbb
000003c0: 6ba9 92bd 562f 0ebe 97d3 f73d 6d08 a2bd
000003d0: adc1 673c 2447 d3bd b8cf bd3d 94b9 e3bd
000003e0: 7a2f 46bc d4fd 6bbd fb07 303d bbd4 8dbd
000003f0: 663c c9bd a47b 02be 87ba 3ebb 49e9 19be

dense_1/MatMul_bias f4 [128]
0.019647999 -0.021635087 0.010944085 -0.015631277 -0.020605199 0.019626386 -0.010256407 -0.00870762
0.01534663 0.004880302 0.006105437 0.003967131 0.022770058 0.03372625 0.026570244 -0.014228887
-0.015950663 -0.00864012 0.031011684 -0.0004617635 0.019334773 -0.018157769 0.025461076 0.0069964714
-0.01684414 0.031809174 0.009785664 0.028345367 -0.0049001575 0.013423594 0.008061285 0.015701054
0.016015254 0.004486868 -0.0026012976 0.017152397 0.017182566 0.0010493196 -0.031245407 0.037472174
0.023819325 0.015078273 -0.013796503 0.042428784 0.02028216 -0.0036944803 0.010520396 0.00715279
0.019980686 0.01690397 -0.011088 0.030631753 -0.007037015 -0.029967932 0.029271811 0.019118542
-0.004864386 0.024154127 0.010928094 0.0041065235 0.0120454775 0.0015379923 0.02089449 -0.004829862
0.010588206 0.010540893 -0.0051372317 0.031171102 0.026907166 -0.008674202 -0.005089594 0.021813871
-0.008008053 -0.011401317 0.012173065 0.0130751245 -0.0014142136 0.040180624 0.012115771 0.017324338
0.0050378405 0.009807738 -0.00027217242 0.018797578 0.02887412 0.012453674 -0.010224567 0.017941851
-0.003843869 0.020310491 -0.0020304346 0.006705014 0.02197408 0.025849199 0.017802568 0.012012819
0.03320132 0.0018183822 -0.0041908473 -0.010608828 0.011155115 0.013305934 4.448732e-05 -0.035708938
0.029129826 0.0053076833 -0.018199421 -0.006253092 0.010275962 0.03476056 0.009574079 0.0029349404
0.03968644 0.022696234 0.011820108 0.009873109 -0.022099435 0.047112305 -0.005056038 -0.009151946
0.007793476 -0.0057413015 0.0076189954 0.016196989 0.0072805765 -0.0034673784 0.018907044 -0.007861675
00000000: d7f4 a03c 113c b1bc d24e 333c 2a0d 80bc
00000010: 3ccc a8bc 84c7 a03c 7d0a 28bc 68aa 0ebc
00000020: 6e70 7b3c f1ea 9f3b 1e10 c83b b5fe 813b
00000030: 4688 ba3c 8924 0a3d d7a9 d93c 4720 69bc
00000040: f7aa 82bc 4a8f 0dbc 370c fe3c d918 f2b9
00000050: f563 9e3c 9abf 94bc bf93 d03c a842 e53b
00000060: b9fc 89bc 564a 023d 0d54 203c 8b34 e83c
00000070: 8091 a0bb a2ee 5b3c 7b13 043c 7f9f 803c
00000080: 6c32 833c 9406 933b 887a 2abb 2f83 8c3c
00000090: 74c2 8c3c 5389 893a 5ef6 ffbc 6c7c 193d
000000a0: bf20 c33c dc0a 773c ba0a 62bc cec9 2d3d
000000b0: c626 a63c 181f 72bb bd5d 2c3c f461 ea3b
000000c0: 89ae a33c 327a 8a3c 71aa 35bc 71ef fa3c
000000d0: c396 e6bb 4f7f f5bc 70cb ef3c 7d9e 9c3c
000000e0: 6d65 9fbb e0de c53c c00b 333c 0490 863b
000000f0: 655a 453c 7596 c93a ec2a ab3c d243 9ebb
00000100: 287a 2d3c b6b3 2c3c 3956 a8bb 8a5a ff3c
00000110: 6b6c dc3c 3d1e 0ebc 9cc6 a6bb 01b3 b23c
00000120: 3534 03bc 97cc 3abc 8971 473c 0c39 563c
00000130: 225d b9ba 7094 243d 3a81 463c c5eb 8d3c
00000140: 7814 a53b a2b0 203c 5db2 8eb9 61fd 993c
00000150: 6b89 ec3c 7f0a 4c3c f184 27bc cafa 923c
00000160: 6ce9 7bbb 3062 a63c 0a11 05bb bcb5 db3b
00000170: fc02 b43c b3c1 d33c b1d6 913c 6ad1 443c
00000180: 1bfe 073d c856 ee3a 6053 89bb a6d0 2dbc
00000190: f2c3 363c 2201 5a3c e597 3a38 8943 12bd
000001a0: aca1 ee3c 13ec ad3b f416 95bc bde6 ccbb
000001b0: 825c 283c 1761 0e3d 99dc 1c3c 2158 403b
000001c0: 408e 223d 74ed b93c 20a9 413c d2c2 213c
000001d0: e009 b5bc d5f8 403d 1fad a5bb 0bf2 15bc
000001e0: 6a60 ff3b 8721 bcbb c4a8 f93b 8caf 843c
000001f0: e791 ee3b f53c 63bb f2e2 9a3c 41ce 00bc

dense_1/kernel/transpose f4 [128, 800]
-0.1563128 0.023446599 0.09424196 -0.11069088 -0.098889895 0.06016749 -0.028054997 -0.109902054
0.007348139 -0.04078504 -0.033045266 -0.08684115 0.0012109668 -0.006482591 -0.0666747 0.047085192
-0.015085506 -0.08834865 -0.019011108 0.15163197 0.06548204 -0.14731167 -0.12591983 -0.037868176
-0.017099293 -0.08149261 0.033000413 -0.020364085 -0.05134048 -0.030894764 0.010366907 0.08005115
-0.14647435 0.017733265 -0.035461277 0.032636948 -0.098865524 0.018022774 0.10208093 -0.14931014
-0.03150177 -0.02628685 -0.09234268 -0.032294456 -0.054255612 0.07590571 0.02496013 0.029778456
-0.051270198 -0.090708055 0.11749731 0.18865286 0.0046563423 -0.04206813 -0.088272795 -0.03598641
0.05448018 -0.05005573 -0.1031049 0.0033718063 -0.045313206 -0.26692876 0.04551858 0.008955229
-0.012310627 0.074877575 -0.041493602 0.12362158 -0.06896889 0.070095934 0.052218214 -0.18034562
0.030272447 0.035910405 -0.0017608617 0.050150305 0.09388772 -0.024262767 -0.069134556 0.0043772887
0.05428163 -0.11722329 0.07500155 0.058749016 0.03218719 -0.02386715 -0.077874705 -0.026679862
0.05623958 -0.030126786 -0.08497464 -0.02299055 -0.021516783 -0.11284374 0.05851788 0.017660933
-0.0042649265 -0.10159325 0.0860766 0.100165814 -0.054377027 0.07639289 0.11648763 0.069458835
0.09774924 -0.04984613 0.11950998 0.092261314 -0.110288836 -0.17541716 -0.029031005 -0.07922369
0.023637773 0.017297534 0.08801438 -0.005452577 -0.010172667 0.07903026 0.0090943705 0.052401032
-0.019944003 -0.016440146 -0.25575954 0.040233262 -0.020215256 0.039516184 -0.029126646 0.059719536
0.031444527 -0.06778102 0.060378727 0.15709628 0.034503702 -0.05011466 -0.014064105 -0.05688995
-0.037233543 0.052437365 -0.010628927 -0.014593173 0.03287666 -0.09592172 0.018697076 -0.066268235
0.104651466 -0.023086747 0.16541715 0.0083284145 0.0728447 0.024424132 0.077489264 0.0025083516
0.03383162 -0.05016215 0.062258124 -0.1342096 0.039616294 -0.014510201 -0.09672694 -0.023078812
0.084605426 0.06045835 0.09215119 0.056921896 -0.17244093 0.08337881 0.051491622 -0.10183538
0.07499162 -0.016553761 0.06804716 0.033382468 0.05041328 -0.051307548 -0.010765356 -0.051638003
-0.014705226 -0.015033962 0.07321976 0.0611083 0.06903546 -0.07851353 -0.023135234 -0.04240113
0.0027938455 0.03755488 -0.022541378 0.01683106 0.029919447 -0.109009705 0.081226654 0.11511022
0.029065838 0.017098233 0.046162028 -0.010395591 -0.07177266 0.08046805 0.0070153046 0.014364292
-0.022978866 -0.053652186 -0.03109919 -0.021872502 0.07335008 -0.044116188 -0.023128608 0.12283614
0.10906454 -0.11837901 0.0458229 0.020560104 0.12476597 0.0014904533 0.05374135 -0.022485614
-8.0187776e-05 0.06805043 0.048146043 -0.02561319 0.039828774 -0.08149411 0.11406588 0.072385825
0.066644795 0.04774457 0.10125047 0.060822573 -0.06728954 0.12574898 0.02081592 -0.04066405
-0.09751457 0.018559562 -0.006586837 -0.013291911 0.00096551544 -0.057918955 0.0682782 0.017487282
0.020274943 0.018758258 -1.826576e-05 -0.12418615 0.024206996 0.09205724 0.092372835 0.04311776
0.028577335 0.117484026 0.08186849 -0.02681412 0.012656269 0.0009576018 0.15108398 0.0069704056
00000000: 7610 20be 1513 c03c ee01 c13d e6b1 e2bd
00000010: c986 cabd 3072 763d 98d3 e5bc 5414 e1bd
00000020: a8c8 f03b 370e 27bd 795a 07bd c6d9 b1bd
00000030: 4eb9 9e3a ea6b d4bb bf8c 88bd 67dc 403d
00000040: 3329 77bc 23f0 b4bd 2fbd 9bbc 6945 1b3e
00000050: 731b 863d dfd8 16be 21f1 00be a91b 1bbd
00000060: d113 8cbc 99e5 a6bd 712b 073d 95d2 a6bc
00000070: 654a 52bd 0417 fdbc f6d9 293c dbf1 a33d
00000080: 5ffd 15be 5a45 913c d83f 11bd 52ae 053d
00000090: 027a cabd 7fa4 933c ce0f d13d c2e4 18be
000000a0: 0008 01bd 8557 d7bc 291e bdbd 3147 04bd
000000b0: 223b 5ebd 7474 9b3d 3079 cc3c f3f1 f33c
000000c0: b300 52bd 25c5 b9bd 6ea2 f03d 372e 413e
000000d0: 3b94 983b a24f 2cbd 5ec8 b4bd 7c66 13bd
000000e0: 9c26 5f3d 3d07 4dbd a928 d3bd 86f9 5c3b
000000f0: 579a 39bd e3aa 88be b171 3a3d f4b8 123c
00000100: 83b2 49bc 6a59 993d 32f5 29bd 502d fd3d
00000110: 903f 8dbd 758e 8f3d c4e2 553d 86ac 38be
00000120: ecfd f73c ca16 133d b7cc e6ba 686a 4d3d
00000130: 3448 c03d b6c2 c6bc 6b96 8dbd 5c6f 8f3b
00000140: 6a56 5e3d c412 f0bd 6a9a 993d cfa2 703d
00000150: b7d6 033d 0b85 c3bc c67c 9fbd ba8f dabc
00000160: 795b 663d 73cc f6bc 2f07 aebd ae56 bcbc
00000170: f743 b0bc 9e1a e7bd 72b0 6f3d a9ad 903c
00000180: ccc0 8bbb 1f10 d0bd ee48 b03d bc23 cd3d
00000190: 72ba 5ebd e073 9c3d 1191 ee3d 6f40 8e3d
000001a0: c130 c83d 752b 4cbd a6c1 f43d 80f3 bc3d
000001b0: 1ddf e1bd 8ea0 33be 6ed2 edbc 0840 a2bd
000001c0: 01a4 c13c 8fb3 8d3c e240 b43d 88ab b2bb
000001d0: 42ab 26bc 9eda a13d 8e00 153c 77a2 563d
000001e0: 9b61 a3bc 7cad 86bc eaf2 82be a2cb 243d
000001f0: 779a a5bc b9db 213d 019b eebc 799c 743d
00000200: facb 003d c7d0 8abd af4f 773d d9dd 203e
00000210: c153 0d3d 0845 4dbd 226d 66bc 7005 69bd
00000220: 3382 18bd 90c8 563d f324 2ebc 3418 6fbc
00000230: ada9 063d 9b72 c4bd 9c2a 993c a4b7 87bd
00000240: 8253 d63d 6b20 bdbc 1d63 293e e773 083c
00000250: 9a2f 953d 1e15 c83c b1b2 9e3d 2863 243b
00000260: 0693 0a3d d476 4dbd 6002 7f3d 3e6e 09be
00000270: b244 223d 32bc 6dbc c618 c6bd c70f bdbc
00000280: 9c45 ad3d 2da3 773d c3b9 bc3d ef26 693d
00000290: 5b94 30be 82c2 aa3d e1e8 523d 118f d0bd
000002a0: 3595 993d c19b 87bc 4f5c 8b3d 0ebc 083d
000002b0: 287e 4e3d dd27 52bd 2d61 30bc 5f82 53bd
000002c0: 30ee 70bc 0251 76bc 3ef4 953d b24c 7a3d
000002d0: 7762 8d3d b4cb a0bd 1a86 bdbc cfac 2dbd
000002e0: f318 373b 25d3 193d b2a8 b8bc 4be1 893c
000002f0: a119 f53c 7b40 dfbd 295a a63d e8be eb3d
00000300: 7b1b ee3c 9811 8c3c 6514 3d3d 4552 2abc
00000310: 8bfd 92bd 6fcc a43d a4e0 e53b 3558 6b3c
00000320: 2d3e bcbc 65c2 5bbd bac3 febc f62d b3bc
00000330: 9138 963d 2db3 34bd 3578 bdbc 8491 fb3d
00000340: 3b5d df3d b270 f2bd cbb0 3b3d aa6d a83c
00000350: 4d85 ff3d 505b c33a e41f 5c3d c033 b8bc
00000360: 7c2a a8b8 065e 8b3d c934 453d c1d2 d1bc
00000370: 7f23 233d 62e6 a6bd 5f9b e93d 053f 943d
00000380: 117d 883d cf8f 433d 685c cf3d 1721 793d
00000390: 19cf 89bd 57c4 003e 2686 aa3c 598f 26bd
000003a0: b8b5 c7bd 390a 983c 65d6 d7bb 51c6 59bc
000003b0: a51a 7d3a 6d3c 6dbd 71d5 8b3d 7d41 8f3c
000003c0: a317 a63c ebaa 993c 6c39 99b7 4f55 febd
000003d0: c04d c63c 8288 bc3d f82d bd3d 409c 303d
000003e0: 041b ea3c 779b f03d abaa a73d 49a9 dbbc
000003f0: 3d5c 4f3c 9207 7b3a c2b5 1a3e 0068 e43b

dense_2/MatMul_bias f4 [10]
0.004020921 0.005600422 -0.0006761179 -0.01595028 -0.018258274 0.008882488 -0.017155346 -0.026028816
0.024310147 0.014816888
00000000: eec1 833b bf83 b73b 813d 31ba 29aa 82bc
00000010: 6092 95bc db87 113c 5e89 8cbc 623a d5bc
00000020: 1326 c73c 88c2 723c

dense_2/kernel/transpose f4 [10, 128]
0.07491522 -0.17925726 -0.24530306 -0.17061815 0.17853421 -0.35263905 0.053592086 -0.113247715
0.19176944 0.19676325 0.05731554 -0.028382327 0.097500294 -0.027616069 0.09133555 0.035731524
0.18719895 -0.16768938 0.028563464 0.072999224 0.17749447 -0.03466484 -0.19890669 -0.0050707995
-0.15903884 -0.0010336769 -0.24254993 0.09637623 -0.18242119 0.083000556 -0.02485186 0.10484075
-0.015156923 -0.061911203 0.22941619 -0.22832909 -0.062438242 0.1933004 0.17167927 0.1777339
-0.13284253 0.121101834 -0.12866408 0.14184533 0.028588058 -0.0868671 0.20845804 0.06512603
0.19748534 -0.15194127 -0.06660185 -0.20099963 -0.15732457 -0.003471637 0.23250575 0.021234727
0.057745416 0.11424559 -0.19855924 -0.1548915 -0.23184295 0.038405307 -0.24239174 -0.18662672
-0.05694738 0.032200936 0.1415372 0.14614803 -0.014876145 0.11742972 0.14951633 -0.0052746544
-0.03826144 -0.064347535 -0.014691395 -0.23076452 0.022877168 0.053085886 -0.0711394 -0.27286047
-0.044482425 0.06191667 -0.06274358 0.040315382 0.094207436 0.062257476 -0.24330163 0.21070594
0.19899394 0.20714067 -0.21059172 0.024374766 -0.17435408 -0.14506733 -0.096389756 0.1380076
0.24058455 -0.24196102 0.25820458 -0.15603329 -0.15123181 -0.08503522 -0.24741687 -0.036802523
0.16238822 0.17471874 -0.048911527 0.12677145 -0.2473339 0.0689869 0.058798686 -0.309067
-0.16520703 -0.016538605 0.22224297 -0.149459 0.057005372 0.19564462 0.036846634 0.0066098673
0.034723762 -0.3562187 -0.16393209 -0.19573335 0.22780344 0.18004237 -0.009632499 -0.2854146
0.014363915 -0.12825951 0.18992737 -0.11457398 -0.106055394 0.010693669 -0.07868104 0.104088515
-0.08540351 -0.07950471 -0.0049850577 -0.0029637336 0.077573925 -0.28934577 0.14867878 0.05145468
-0.039619517 0.039168816 -0.12917061 0.067484446 0.16462766 -0.1497023 0.079565495 -0.060055986
-0.12225638 0.1581179 0.13958384 0.16196194 -0.010207833 -0.24428444 0.28015727 -0.06958808
-0.16649602 -0.13839011 -0.21236275 0.16405176 0.22249964 -0.18905957 -0.030781718 0.03567594
-0.12395855 -0.12051997 -0.039024383 0.23957095 -0.2045147 0.0851068 -0.127077 0.17264497
-0.2199544 0.14115174 -0.049918424 0.1568048 -0.08216065 0.02153404 -0.000577745 -0.0038933335
-0.10031726 0.110234864 -0.27606294 -0.048346385 0.20469084 -0.14867555 -0.04265167 0.20412436
-0.0861468 -0.073086426 0.13525073 -0.15546031 0.16061804 0.1435018 -0.09893774 -0.292654
-0.04831847 -0.10844759 -0.24985155 0.105388224 0.048683845 0.27911943 -0.27487323 0.17337932
-0.120724685 -0.14414747 0.041292023 -0.03482607 -0.085901335 0.05105527 -0.30493584 0.11439412
0.3693545 0.054950606 -0.0161975 0.34460267 0.055275574 0.086567946 -0.22750518 -0.13029295
0.12347994 0.2720507 0.010476603 0.07424955 -0.20206062 0.13210936 0.24384461 0.15136589
0.20562972 -0.048220143 -0.24243537 -0.19663484 0.17718323 0.13188218 -0.08761269 -0.2377946
0.17120932 0.027970618 -0.049785502 -0.21256794 0.07113738 0.17578736 -0.14023723 -0.15026565
0.203458 0.053082816 -0.1408241 0.10943007 0.08740324 0.015640056 0.19532566 -0.029066028
00000000: 276d 993d 378f 37be ba30 7bbe 86b6 2ebe
00000010: acd1 363e 1b8d b4be 6083 5b3d 6bee e7bd
00000020: 355f 443e 4e7c 493e b3c3 6a3d 0e82 e8bc
00000030: 3cae c73d 183b e2bc 220e bb3d 385b 123d
00000040: 15b1 3f3e c4b6 2bbe edfd e93c 9e80 953d
00000050: 1cc1 353e b8fc 0dbd 32ae 4bbe f328 a6bb
00000060: 14db 22be 717c 87ba 025f 78be e760 c53d
00000070: 9fcc 3abe 32fc a93d 2196 cbbc bfb6 d63d
00000080: be54 78bc 9a96 7dbd 14ec 6a3e 1acf 69be
00000090: 3ebf 7fbd 8af0 453e b1cc 2f3e e0ff 353e
000000a0: df07 08be 3d04 f83d 84c0 03be e73f 113e
000000b0: 8131 ea3c 61e7 b1bd 0676 553e cc60 853d
000000c0: 9939 4a3e 7e96 1bbe 8d66 88bd d9d2 4dbe
000000d0: b119 21be 6784 63bb fd15 6e3e 73f4 ad3c
000000e0: 7586 6c3d 98f9 e93d 1d53 4bbe e19b 1ebe
000000f0: 3d68 6dbe e24e 1d3d 8a35 78be 131b 3fbe
00000100: a841 69bd 21e5 033d 21ef 103e d4a7 153e
00000110: 13bb 73bc fe7e f03d cf1a 193e 02d7 acbb
00000120: 07b8 1cbd a4c8 83bd 2db4 70bc 894d 6cbe
00000130: e668 bb3c 9670 593d 89b1 91bd 5eb4 8bbe
00000140: 3433 36bd 569c 7d3d b57f 80bd be21 253d
00000150: d4ef c03d b201 7f3d 1024 79be 4cc3 573e
00000160: 11c5 4b3e af1c 543e 5ba5 57be 97ad c73c
00000170: e089 32be 888c 14be fe67 c5bd dd51 0d3e
00000180: cc5b 763e a1c4 77be 6433 843e 31c7 1fbe
00000190: 83dc 1abe f226 aebd d95a 7dbe 3ebe 16bd
000001a0: 1949 263e 78e9 323e 7457 48bd 60d0 013e
000001b0: 1945 7dbe 0149 8d3d e4d6 703d 083e 9ebe
000001c0: 082c 29be f87b 87bc a993 633e c80b 19be
000001d0: 777e 693d 1057 483e 7fec 163d 9697 d83b
000001e0: 813a 0e3d 4c62 b6be d0dd 27be 536e 48be
000001f0: 4e45 693e 075d 383e a1d1 1dbc dd21 92be
00000200: a056 6b3c 7656 03be 527c 423e c3a5 eabd
00000210: 9233 d9bd 8034 2f3c 8623 a1bd 5c2c d53d
00000220: 09e8 aebd 5ed3 a2bd b259 a3bb 333b 42bb
00000230: 14df 9e3d 2125 94be 403f 183e 24c2 523d
00000240: 1348 22bd 7b6f 203d 4d45 04be 4935 8a3d
00000250: 2794 283e 8f4b 19be 3cf3 a23d 44fd 75bd
00000260: 8e61 fabd a9e9 213e 11ef 0e3e 5ad9 253e
00000270: c13e 27bc b325 7abe c670 8f3e 3284 8ebd
00000280: ef7d 2abe 23b6 0dbe 9f75 59be 2ffd 273e
00000290: f2d6 633e d598 41be f129 fcbc ef20 123d
000002a0: fbdd fdbd 2dd3 f6bd 08d8 1fbd 1652 753e
000002b0: 4d6c 51be 794c ae3d 7920 02be d8c9 303e
000002c0: ba3b 61be 158a 103e 4377 4cbd 7091 203e
000002d0: d843 a8bd 2868 b03c d073 17ba 4c27 7fbb
000002e0: 2373 cdbd d1c2 e13d 1f58 8dbe dc06 46bd
000002f0: 7a9a 513e 673e 18be 84b3 2ebd fa05 513e
00000300: bc6d b0bd 56ae 95bd 2b7f 0a3e fd30 1fbe
00000310: 0e79 243e 23f2 123e df9f cabd bfd6 95be
00000320: 97e9 45bd c519 debd 16d9 7fbe c8d5 d73d
00000330: b668 473d bee8 8e3e 2fbc 8cbe 598a 313e
00000340: 813e f7bd 659b 13be d321 293d c8a5 0ebd
00000350: 0aed afbd 551f 513d 8d20 9cbe 7747 ea3d
00000360: 081c bd3e e313 613d 9fb0 84bc c36f b03e
00000370: a468 623d 894a b13d 1ef7 68be 846b 05be
00000380: 0de3 fc3d 3b4a 8b3e 0fa6 2b3c 2610 983d
00000390: fbe8 4ebe ad47 073e 67b2 793e a9ff 1a3e
000003a0: 9990 523e 7c82 45bd fa40 78be a55a 49be
000003b0: 856f 353e 1f0c 073e 486e b3bd 6d80 73be
000003c0: 7f51 2f3e a322 e53c e2eb 4bbd 69ab 59be
000003d0: 7ab0 913d 9a01 343e 599a 0fbe 3ddf 19be
000003e0: 4b57 503e 5e6d 593d 3134 10be df1c e03d
000003f0: 7800 b33d 931f 803c 7303 483e e11b eebc
